[10:10:48.170445] Model = Spiking_vit_MetaFormer_Spike_SepConv(
  (downsample1_1): MS_DownSampling(
    (encode_conv): Conv2d(3, 16, kernel_size=(7, 7), stride=(2, 2), padding=(3, 3))
    (encode_bn): BatchNorm2d(16, eps=1e-05, momentum=0.1, affine=True, track_running_stats=True)
  )
  (ConvBlock1_1): ModuleList(
    (0): MS_ConvBlock_spike_SepConv(
      (Conv): SepConv_Spike(
        (spike1): MultiSpike(Max_Value=4, Min_Value=0, Norm=4, Threshold=0.5000)
        (pwconv1): Sequential(
          (0): Conv2d(16, 32, kernel_size=(1, 1), stride=(1, 1), bias=False)
          (1): BatchNorm2d(32, eps=1e-05, momentum=0.1, affine=True, track_running_stats=True)
        )
        (spike2): MultiSpike(Max_Value=4, Min_Value=0, Norm=4, Threshold=0.5000)
        (dwconv): Sequential(
          (0): Conv2d(32, 32, kernel_size=(7, 7), stride=(1, 1), padding=(3, 3), groups=32, bias=False)
          (1): BatchNorm2d(32, eps=1e-05, momentum=0.1, affine=True, track_running_stats=True)
        )
        (spike3): MultiSpike(Max_Value=4, Min_Value=0, Norm=4, Threshold=0.5000)
        (pwconv2): Sequential(
          (0): Conv2d(32, 16, kernel_size=(1, 1), stride=(1, 1), bias=False)
          (1): BatchNorm2d(16, eps=1e-05, momentum=0.1, affine=True, track_running_stats=True)
        )
      )
      (spike1): MultiSpike(Max_Value=4, Min_Value=0, Norm=4, Threshold=0.5000)
      (conv1): Conv2d(16, 64, kernel_size=(3, 3), stride=(1, 1), padding=(1, 1), bias=False)
      (bn1): BatchNorm2d(64, eps=1e-05, momentum=0.1, affine=True, track_running_stats=True)
      (spike2): MultiSpike(Max_Value=4, Min_Value=0, Norm=4, Threshold=0.5000)
      (conv2): Conv2d(64, 16, kernel_size=(3, 3), stride=(1, 1), padding=(1, 1), bias=False)
      (bn2): BatchNorm2d(16, eps=1e-05, momentum=0.1, affine=True, track_running_stats=True)
    )
  )
  (downsample1_2): MS_DownSampling(
    (encode_conv): Conv2d(16, 32, kernel_size=(3, 3), stride=(2, 2), padding=(1, 1))
    (encode_bn): BatchNorm2d(32, eps=1e-05, momentum=0.1, affine=True, track_running_stats=True)
    (encode_spike): MultiSpike(Max_Value=4, Min_Value=0, Norm=4, Threshold=0.5000)
  )
  (ConvBlock1_2): ModuleList(
    (0): MS_ConvBlock_spike_SepConv(
      (Conv): SepConv_Spike(
        (spike1): MultiSpike(Max_Value=4, Min_Value=0, Norm=4, Threshold=0.5000)
        (pwconv1): Sequential(
          (0): Conv2d(32, 64, kernel_size=(1, 1), stride=(1, 1), bias=False)
          (1): BatchNorm2d(64, eps=1e-05, momentum=0.1, affine=True, track_running_stats=True)
        )
        (spike2): MultiSpike(Max_Value=4, Min_Value=0, Norm=4, Threshold=0.5000)
        (dwconv): Sequential(
          (0): Conv2d(64, 64, kernel_size=(7, 7), stride=(1, 1), padding=(3, 3), groups=64, bias=False)
          (1): BatchNorm2d(64, eps=1e-05, momentum=0.1, affine=True, track_running_stats=True)
        )
        (spike3): MultiSpike(Max_Value=4, Min_Value=0, Norm=4, Threshold=0.5000)
        (pwconv2): Sequential(
          (0): Conv2d(64, 32, kernel_size=(1, 1), stride=(1, 1), bias=False)
          (1): BatchNorm2d(32, eps=1e-05, momentum=0.1, affine=True, track_running_stats=True)
        )
      )
      (spike1): MultiSpike(Max_Value=4, Min_Value=0, Norm=4, Threshold=0.5000)
      (conv1): Conv2d(32, 128, kernel_size=(3, 3), stride=(1, 1), padding=(1, 1), bias=False)
      (bn1): BatchNorm2d(128, eps=1e-05, momentum=0.1, affine=True, track_running_stats=True)
      (spike2): MultiSpike(Max_Value=4, Min_Value=0, Norm=4, Threshold=0.5000)
      (conv2): Conv2d(128, 32, kernel_size=(3, 3), stride=(1, 1), padding=(1, 1), bias=False)
      (bn2): BatchNorm2d(32, eps=1e-05, momentum=0.1, affine=True, track_running_stats=True)
    )
  )
  (downsample2): MS_DownSampling(
    (encode_conv): Conv2d(32, 64, kernel_size=(3, 3), stride=(2, 2), padding=(1, 1))
    (encode_bn): BatchNorm2d(64, eps=1e-05, momentum=0.1, affine=True, track_running_stats=True)
    (encode_spike): MultiSpike(Max_Value=4, Min_Value=0, Norm=4, Threshold=0.5000)
  )
  (ConvBlock2_1): ModuleList(
    (0): MS_ConvBlock_spike_SepConv(
      (Conv): SepConv_Spike(
        (spike1): MultiSpike(Max_Value=4, Min_Value=0, Norm=4, Threshold=0.5000)
        (pwconv1): Sequential(
          (0): Conv2d(64, 128, kernel_size=(1, 1), stride=(1, 1), bias=False)
          (1): BatchNorm2d(128, eps=1e-05, momentum=0.1, affine=True, track_running_stats=True)
        )
        (spike2): MultiSpike(Max_Value=4, Min_Value=0, Norm=4, Threshold=0.5000)
        (dwconv): Sequential(
          (0): Conv2d(128, 128, kernel_size=(7, 7), stride=(1, 1), padding=(3, 3), groups=128, bias=False)
          (1): BatchNorm2d(128, eps=1e-05, momentum=0.1, affine=True, track_running_stats=True)
        )
        (spike3): MultiSpike(Max_Value=4, Min_Value=0, Norm=4, Threshold=0.5000)
        (pwconv2): Sequential(
          (0): Conv2d(128, 64, kernel_size=(1, 1), stride=(1, 1), bias=False)
          (1): BatchNorm2d(64, eps=1e-05, momentum=0.1, affine=True, track_running_stats=True)
        )
      )
      (spike1): MultiSpike(Max_Value=4, Min_Value=0, Norm=4, Threshold=0.5000)
      (conv1): Conv2d(64, 256, kernel_size=(3, 3), stride=(1, 1), padding=(1, 1), bias=False)
      (bn1): BatchNorm2d(256, eps=1e-05, momentum=0.1, affine=True, track_running_stats=True)
      (spike2): MultiSpike(Max_Value=4, Min_Value=0, Norm=4, Threshold=0.5000)
      (conv2): Conv2d(256, 64, kernel_size=(3, 3), stride=(1, 1), padding=(1, 1), bias=False)
      (bn2): BatchNorm2d(64, eps=1e-05, momentum=0.1, affine=True, track_running_stats=True)
    )
  )
  (ConvBlock2_2): ModuleList(
    (0): MS_ConvBlock_spike_SepConv(
      (Conv): SepConv_Spike(
        (spike1): MultiSpike(Max_Value=4, Min_Value=0, Norm=4, Threshold=0.5000)
        (pwconv1): Sequential(
          (0): Conv2d(64, 128, kernel_size=(1, 1), stride=(1, 1), bias=False)
          (1): BatchNorm2d(128, eps=1e-05, momentum=0.1, affine=True, track_running_stats=True)
        )
        (spike2): MultiSpike(Max_Value=4, Min_Value=0, Norm=4, Threshold=0.5000)
        (dwconv): Sequential(
          (0): Conv2d(128, 128, kernel_size=(7, 7), stride=(1, 1), padding=(3, 3), groups=128, bias=False)
          (1): BatchNorm2d(128, eps=1e-05, momentum=0.1, affine=True, track_running_stats=True)
        )
        (spike3): MultiSpike(Max_Value=4, Min_Value=0, Norm=4, Threshold=0.5000)
        (pwconv2): Sequential(
          (0): Conv2d(128, 64, kernel_size=(1, 1), stride=(1, 1), bias=False)
          (1): BatchNorm2d(64, eps=1e-05, momentum=0.1, affine=True, track_running_stats=True)
        )
      )
      (spike1): MultiSpike(Max_Value=4, Min_Value=0, Norm=4, Threshold=0.5000)
      (conv1): Conv2d(64, 256, kernel_size=(3, 3), stride=(1, 1), padding=(1, 1), bias=False)
      (bn1): BatchNorm2d(256, eps=1e-05, momentum=0.1, affine=True, track_running_stats=True)
      (spike2): MultiSpike(Max_Value=4, Min_Value=0, Norm=4, Threshold=0.5000)
      (conv2): Conv2d(256, 64, kernel_size=(3, 3), stride=(1, 1), padding=(1, 1), bias=False)
      (bn2): BatchNorm2d(64, eps=1e-05, momentum=0.1, affine=True, track_running_stats=True)
    )
  )
  (downsample3): MS_DownSampling(
    (encode_conv): Conv2d(64, 128, kernel_size=(3, 3), stride=(2, 2), padding=(1, 1))
    (encode_bn): BatchNorm2d(128, eps=1e-05, momentum=0.1, affine=True, track_running_stats=True)
    (encode_spike): MultiSpike(Max_Value=4, Min_Value=0, Norm=4, Threshold=0.5000)
  )
  (block3): ModuleList(
    (0-5): 6 x MS_Block_Spike_SepConv(
      (conv): SepConv_Spike(
        (spike1): MultiSpike(Max_Value=4, Min_Value=0, Norm=4, Threshold=0.5000)
        (pwconv1): Sequential(
          (0): Conv2d(128, 256, kernel_size=(1, 1), stride=(1, 1), bias=False)
          (1): BatchNorm2d(256, eps=1e-05, momentum=0.1, affine=True, track_running_stats=True)
        )
        (spike2): MultiSpike(Max_Value=4, Min_Value=0, Norm=4, Threshold=0.5000)
        (dwconv): Sequential(
          (0): Conv2d(256, 256, kernel_size=(3, 3), stride=(1, 1), padding=(1, 1), groups=256, bias=False)
          (1): BatchNorm2d(256, eps=1e-05, momentum=0.1, affine=True, track_running_stats=True)
        )
        (spike3): MultiSpike(Max_Value=4, Min_Value=0, Norm=4, Threshold=0.5000)
        (pwconv2): Sequential(
          (0): Conv2d(256, 128, kernel_size=(1, 1), stride=(1, 1), bias=False)
          (1): BatchNorm2d(128, eps=1e-05, momentum=0.1, affine=True, track_running_stats=True)
        )
      )
      (attn): MS_Attention_linear_with_LateralInhibition(
        (head_spike): MultiSpike(Max_Value=4, Min_Value=0, Norm=4, Threshold=0.5000)
        (qe_conv): Sequential(
          (0): Conv2d(128, 128, kernel_size=(1, 1), stride=(1, 1), bias=False)
          (1): BatchNorm2d(128, eps=1e-05, momentum=0.1, affine=True, track_running_stats=True)
        )
        (qe_spike): MultiSpike(Max_Value=4, Min_Value=0, Norm=4, Threshold=0.5000)
        (qi_conv): Sequential(
          (0): Conv2d(128, 128, kernel_size=(1, 1), stride=(1, 1), bias=False)
          (1): BatchNorm2d(128, eps=1e-05, momentum=0.1, affine=True, track_running_stats=True)
        )
        (qi_spike): MultiSpike(Max_Value=4, Min_Value=0, Norm=4, Threshold=0.5000)
        (k_conv): Sequential(
          (0): Conv2d(128, 128, kernel_size=(1, 1), stride=(1, 1), bias=False)
          (1): BatchNorm2d(128, eps=1e-05, momentum=0.1, affine=True, track_running_stats=True)
        )
        (k_spike): MultiSpike(Max_Value=4, Min_Value=0, Norm=4, Threshold=0.5000)
        (v_conv): Sequential(
          (0): Conv2d(128, 512, kernel_size=(1, 1), stride=(1, 1), bias=False)
          (1): BatchNorm2d(512, eps=1e-05, momentum=0.1, affine=True, track_running_stats=True)
        )
        (v_spike): MultiSpike(Max_Value=4, Min_Value=0, Norm=4, Threshold=0.5000)
        (attn_spike): MultiSpike(Max_Value=4, Min_Value=0, Norm=4, Threshold=0.5000)
        (excitatory_spike): MultiSpike(Max_Value=4, Min_Value=0, Norm=4, Threshold=0.5000)
        (inhibitory_spike): MultiSpike(Max_Value=4, Min_Value=0, Norm=4, Threshold=0.5000)
        (combined_spike): MultiSpike(Max_Value=4, Min_Value=0, Norm=4, Threshold=0.5000)
        (proj_conv): Sequential(
          (0): Conv2d(512, 128, kernel_size=(1, 1), stride=(1, 1), bias=False)
          (1): BatchNorm2d(128, eps=1e-05, momentum=0.1, affine=True, track_running_stats=True)
        )
      )
      (drop_path): Identity()
      (mlp): MS_MLP(
        (fc1_conv): Conv1d(128, 512, kernel_size=(1,), stride=(1,))
        (fc1_bn): BatchNorm1d(512, eps=1e-05, momentum=0.1, affine=True, track_running_stats=True)
        (fc1_spike): MultiSpike(Max_Value=4, Min_Value=0, Norm=4, Threshold=0.5000)
        (fc2_conv): Conv1d(512, 128, kernel_size=(1,), stride=(1,))
        (fc2_bn): BatchNorm1d(128, eps=1e-05, momentum=0.1, affine=True, track_running_stats=True)
        (fc2_spike): MultiSpike(Max_Value=4, Min_Value=0, Norm=4, Threshold=0.5000)
      )
    )
  )
  (downsample4): MS_DownSampling(
    (encode_conv): Conv2d(128, 192, kernel_size=(3, 3), stride=(1, 1), padding=(1, 1))
    (encode_bn): BatchNorm2d(192, eps=1e-05, momentum=0.1, affine=True, track_running_stats=True)
    (encode_spike): MultiSpike(Max_Value=4, Min_Value=0, Norm=4, Threshold=0.5000)
  )
  (block4): ModuleList(
    (0-1): 2 x MS_Block_Spike_SepConv(
      (conv): SepConv_Spike(
        (spike1): MultiSpike(Max_Value=4, Min_Value=0, Norm=4, Threshold=0.5000)
        (pwconv1): Sequential(
          (0): Conv2d(192, 384, kernel_size=(1, 1), stride=(1, 1), bias=False)
          (1): BatchNorm2d(384, eps=1e-05, momentum=0.1, affine=True, track_running_stats=True)
        )
        (spike2): MultiSpike(Max_Value=4, Min_Value=0, Norm=4, Threshold=0.5000)
        (dwconv): Sequential(
          (0): Conv2d(384, 384, kernel_size=(3, 3), stride=(1, 1), padding=(1, 1), groups=384, bias=False)
          (1): BatchNorm2d(384, eps=1e-05, momentum=0.1, affine=True, track_running_stats=True)
        )
        (spike3): MultiSpike(Max_Value=4, Min_Value=0, Norm=4, Threshold=0.5000)
        (pwconv2): Sequential(
          (0): Conv2d(384, 192, kernel_size=(1, 1), stride=(1, 1), bias=False)
          (1): BatchNorm2d(192, eps=1e-05, momentum=0.1, affine=True, track_running_stats=True)
        )
      )
      (attn): MS_Attention_linear_with_LateralInhibition(
        (head_spike): MultiSpike(Max_Value=4, Min_Value=0, Norm=4, Threshold=0.5000)
        (qe_conv): Sequential(
          (0): Conv2d(192, 192, kernel_size=(1, 1), stride=(1, 1), bias=False)
          (1): BatchNorm2d(192, eps=1e-05, momentum=0.1, affine=True, track_running_stats=True)
        )
        (qe_spike): MultiSpike(Max_Value=4, Min_Value=0, Norm=4, Threshold=0.5000)
        (qi_conv): Sequential(
          (0): Conv2d(192, 192, kernel_size=(1, 1), stride=(1, 1), bias=False)
          (1): BatchNorm2d(192, eps=1e-05, momentum=0.1, affine=True, track_running_stats=True)
        )
        (qi_spike): MultiSpike(Max_Value=4, Min_Value=0, Norm=4, Threshold=0.5000)
        (k_conv): Sequential(
          (0): Conv2d(192, 192, kernel_size=(1, 1), stride=(1, 1), bias=False)
          (1): BatchNorm2d(192, eps=1e-05, momentum=0.1, affine=True, track_running_stats=True)
        )
        (k_spike): MultiSpike(Max_Value=4, Min_Value=0, Norm=4, Threshold=0.5000)
        (v_conv): Sequential(
          (0): Conv2d(192, 768, kernel_size=(1, 1), stride=(1, 1), bias=False)
          (1): BatchNorm2d(768, eps=1e-05, momentum=0.1, affine=True, track_running_stats=True)
        )
        (v_spike): MultiSpike(Max_Value=4, Min_Value=0, Norm=4, Threshold=0.5000)
        (attn_spike): MultiSpike(Max_Value=4, Min_Value=0, Norm=4, Threshold=0.5000)
        (excitatory_spike): MultiSpike(Max_Value=4, Min_Value=0, Norm=4, Threshold=0.5000)
        (inhibitory_spike): MultiSpike(Max_Value=4, Min_Value=0, Norm=4, Threshold=0.5000)
        (combined_spike): MultiSpike(Max_Value=4, Min_Value=0, Norm=4, Threshold=0.5000)
        (proj_conv): Sequential(
          (0): Conv2d(768, 192, kernel_size=(1, 1), stride=(1, 1), bias=False)
          (1): BatchNorm2d(192, eps=1e-05, momentum=0.1, affine=True, track_running_stats=True)
        )
      )
      (drop_path): Identity()
      (mlp): MS_MLP(
        (fc1_conv): Conv1d(192, 768, kernel_size=(1,), stride=(1,))
        (fc1_bn): BatchNorm1d(768, eps=1e-05, momentum=0.1, affine=True, track_running_stats=True)
        (fc1_spike): MultiSpike(Max_Value=4, Min_Value=0, Norm=4, Threshold=0.5000)
        (fc2_conv): Conv1d(768, 192, kernel_size=(1,), stride=(1,))
        (fc2_bn): BatchNorm1d(192, eps=1e-05, momentum=0.1, affine=True, track_running_stats=True)
        (fc2_spike): MultiSpike(Max_Value=4, Min_Value=0, Norm=4, Threshold=0.5000)
      )
    )
  )
  (head): Linear(in_features=192, out_features=1000, bias=True)
  (spike): MultiSpike(Max_Value=4, Min_Value=0, Norm=1, Threshold=0.5000)
)
[10:10:48.170828] number of params (M): 5.28
[10:10:48.170959] base lr: 6.00e-04
[10:10:48.171055] actual lr: 1.20e-03
[10:10:48.171138] accumulate grad iterations: 1
[10:10:48.171222] effective batch size: 512
[10:10:48.194087] criterion = LabelSmoothingCrossEntropy()
[10:10:48.194311] Start training for 20 epochs
…
